Model: "model4" Rechner scorsese
_________________________________________________________________
Layer (type)                 Output Shape              Param #   
=================================================================
input_1 (InputLayer)         [(None, 28, 28, 1)]       0         
_________________________________________________________________
conv2d (Conv2D)              (None, 28, 28, 32)        320       
_________________________________________________________________
conv2d_1 (Conv2D)            (None, 28, 28, 32)        9248      
_________________________________________________________________
max_pooling2d (MaxPooling2D) (None, 14, 14, 32)        0         
_________________________________________________________________
conv2d_2 (Conv2D)            (None, 14, 14, 64)        18496     
_________________________________________________________________
conv2d_3 (Conv2D)            (None, 14, 14, 64)        36928     
_________________________________________________________________
max_pooling2d_1 (MaxPooling2 (None, 7, 7, 64)          0         
_________________________________________________________________
flatten (Flatten)            (None, 3136)              0         
_________________________________________________________________
dense (Dense)                (None, 64)                200768    
_________________________________________________________________
dense_1 (Dense)              (None, 10)                650       
=================================================================
Total params: 266,410
Trainable params: 266,410
Non-trainable params: 0
_________________________________________________________________
layer bis? ex: Input-Conv-Conv-MaxP = 35
computer_name?scorsese2
Train on 60000 samples, validate on 10000 samples
2020-01-26 19:34:17.408128: W tensorflow/stream_executor/platform/default
…
