Model: "model3" bei Rechner curtiz
_________________________________________________________________
Layer (type)                 Output Shape              Param #   
=================================================================
input_1 (InputLayer)         [(None, 28, 28, 1)]       0         
_________________________________________________________________
conv2d (Conv2D)              (None, 28, 28, 32)        320       
_________________________________________________________________
conv2d_1 (Conv2D)            (None, 28, 28, 32)        9248      
_________________________________________________________________
max_pooling2d (MaxPooling2D) (None, 14, 14, 32)        0         
_________________________________________________________________
conv2d_2 (Conv2D)            (None, 14, 14, 64)        18496     
_________________________________________________________________
conv2d_3 (Conv2D)            (None, 14, 14, 64)        36928     
_________________________________________________________________
max_pooling2d_1 (MaxPooling2 (None, 7, 7, 64)          0         
_________________________________________________________________
conv2d_4 (Conv2D)            (None, 7, 7, 64)          36928     
_________________________________________________________________
conv2d_5 (Conv2D)            (None, 7, 7, 64)          36928     
_________________________________________________________________
flatten (Flatten)            (None, 3136)              0         
_________________________________________________________________
dense (Dense)                (None, 32)                100384    
_________________________________________________________________
dense_1 (Dense)              (None, 10)                330       
=================================================================
Total params: 239,562
Trainable params: 239,562
Non-trainable params: 0
_________________________________________________________________


Epoch 1/50
59904/60000 [============================>.] - ETA: 0s - loss: 0.2059 - accuracy: 0.9347
process deconv:  conv2d
process deconv:  conv2d_1
process deconv:  max_pooling2d
process deconv:  conv2d_2
…
