Model: "model2"
_________________________________________________________________
Layer (type)                 Output Shape              Param #   
=================================================================
input_1 (InputLayer)         [(None, 300, 300, 3)]     0         
_________________________________________________________________
conv2d (Conv2D)              (None, 300, 300, 32)      896       
_________________________________________________________________
max_pooling2d (MaxPooling2D) (None, 150, 150, 32)      0         
_________________________________________________________________
conv2d_1 (Conv2D)            (None, 150, 150, 32)      9248      
_________________________________________________________________
max_pooling2d_1 (MaxPooling2 (None, 75, 75, 32)        0         
_________________________________________________________________
conv2d_2 (Conv2D)            (None, 75, 75, 32)        9248      
_________________________________________________________________
max_pooling2d_2 (MaxPooling2 (None, 15, 15, 32)        0         
_________________________________________________________________
flatten (Flatten)            (None, 7200)              0         
_________________________________________________________________
dense (Dense)                (None, 64)                460864    
_________________________________________________________________
dense_1 (Dense)              (None, 3)                 195       
=================================================================
Total params: 480,451
Trainable params: 480,451
Non-trainable params: 0
_________________________________________________________________
Train on 2520 samples, validate on 372 samples
2020-01-24 00:07:28.404405: W tensorflow/stream_executor/platform/default/dso_loader.cc:55] Could not load dynamic library 'libcuda.so.1'; dl
…
