Model: "model2" Rechner scorsese1
_________________________________________________________________
Layer (type)                 Output Shape              Param #   
=================================================================
input_1 (InputLayer)         [(None, 28, 28, 1)]       0         
_________________________________________________________________
conv2d (Conv2D)              (None, 28, 28, 32)        320       
_________________________________________________________________
conv2d_1 (Conv2D)            (None, 28, 28, 64)        18496     
_________________________________________________________________
max_pooling2d (MaxPooling2D) (None, 14, 14, 64)        0         
_________________________________________________________________
flatten (Flatten)            (None, 12544)             0         
_________________________________________________________________
dense (Dense)                (None, 64)                802880    
_________________________________________________________________
dense_1 (Dense)              (None, 10)                650       
=================================================================
Total params: 822,346
Trainable params: 822,346
Non-trainable params: 0
_________________________________________________________________
layer bis? ex: Input-Conv-Conv-MaxP = 33
computer_name?scorsese1
Train on 60000 samples, validate on 10000 samples
2020-01-26 18:13:57.305780: W tensorflow/stream_executor/platform/default
…
